…
__________________________________________________________________________________________________
Layer (type)                    Output Shape         Param #     Connected to
==================================================================================================
HyponymInput (InputLayer)       [(None, 10)]         0
__________________________________________________________________________________________________
HypernymInput (InputLayer)      [(None, 103)]        0
__________________________________________________________________________________________________
HyponymEmbedding (Embedding)    (None, 10, 300)      19709100    HyponymInput[0][0]
__________________________________________________________________________________________________
HypernymEmbedding (Embedding)   (None, 103, 300)     19709100    HypernymInput[0][0]
__________________________________________________________________________________________________
HyponymUnigramsConv (Conv1D)    (None, 10, 512)      154112      HyponymEmbedding[0][0]
__________________________________________________________________________________________________
HyponymBigramsConv (Conv1D)     (None, 10, 512)      307712      HyponymEmbedding[0][0]
__________________________________________________________________________________________________
HypernymUnigramsConv (Conv1D)   (None, 103, 512)     154112      HypernymEmbedding[0][0]
__________________________________________________________________________________________________
HypernymBigramsConv (Conv1D)    (None, 103, 512)     307712      HypernymEmbedding[0][0]
__________________________________________________________________________________________________
HypernymTrigramsConv (Conv1D)   (None, 103, 512)     461312      HypernymEmbedding[0][0]
__________________________________________________________________________________________________
HyponymConcat (Concatenate)     (None, 10, 1024)     0           HyponymUnigramsConv[0][0]
                                                                 HyponymBigramsConv[0][0]
__________________________________________________________________________________________________
HyponymMaskCalculator (MaskCalc (None, 10, 1024)     1           HyponymInput[0][0]
__________________________________________________________________________________________________
HypernymConcat (Concatenate)    (None, 103, 1536)    0           HypernymUnigramsConv[0][0]
                                                                 HypernymBigramsConv[0][0]
                                                                 HypernymTrigramsConv[0][0]
__________________________________________________________________________________________________
HypernymMaskCalculator (MaskCal (None, 103, 1536)    1           HypernymInput[0][0]
__________________________________________________________________________________________________
HyponymMaskMultiplicator (Multi (None, 10, 1024)     0           HyponymConcat[0][0]
                                                                 HyponymMaskCalculator[0][0]
__________________________________________________________________________________________________
HypernymMaskMultiplicator (Mult (None, 103, 1536)    0           HypernymConcat[0][0]
                                                                 HypernymMaskCalculator[0][0]
__________________________________________________________________________________________________
HyponymMasking (Masking)        (None, 10, 1024)     0           HyponymMaskMultiplicator[0][0]
__________________________________________________________________________________________________
HypernymMasking (Masking)       (None, 103, 1536)    0           HypernymMaskMultiplicator[0][0]
__________________________________________________________________________________________________
HyponymAvePooling (GlobalAverag (None, 1024)         0           HyponymMasking[0][0]
__________________________________________________________________________________________________
HypernymAvePooling (GlobalAvera (None, 1536)         0           HypernymMasking[0][0]
__________________________________________________________________________________________________
ConcatAll (Concatenate)         (None, 2560)         0           HyponymAvePooling[0][0]
                                                                 HypernymAvePooling[0][0]
__________________________________________________________________________________________________
Dropout0 (Dropout)              (None, 2560)         0           ConcatAll[0][0]
__________________________________________________________________________________________________
HiddenLayer1 (Dense)            (None, 2048)         5244928     Dropout0[0][0]
__________________________________________________________________________________________________
Dropout1 (Dropout)              (None, 2048)         0           HiddenLayer1[0][0]
__________________________________________________________________________________________________
OutputLayer (Dense)             (None, 1)            2049        Dropout1[0][0]
==================================================================================================
Total params: 46,050,139
Trainable params: 6,631,937
Non-trainable params: 39,418,202
__________________________________________________________________________________________________

2020-02-17 19:24:45.535902: I tensorflow/stream_executor/platform/default/dso_loader.cc:44] Successfully opened dynamic library cublas64_10.dll
…
__________________________________________________________________________________________________
Layer (type)                    Output Shape         Param #     Connected to
==================================================================================================
HyponymInput (InputLayer)       [(None, 10)]         0
__________________________________________________________________________________________________
HypernymInput (InputLayer)      [(None, 103)]        0
__________________________________________________________________________________________________
HyponymEmbedding (Embedding)    (None, 10, 300)      19709100    HyponymInput[0][0]
__________________________________________________________________________________________________
HypernymEmbedding (Embedding)   (None, 103, 300)     19709100    HypernymInput[0][0]
__________________________________________________________________________________________________
HyponymUnigramsConv (Conv1DFlip (None, 10, 512)      307712      HyponymEmbedding[0][0]
__________________________________________________________________________________________________
HyponymBigramsConv (Conv1DFlipo (None, 10, 512)      614912      HyponymEmbedding[0][0]
__________________________________________________________________________________________________
HypernymUnigramsConv (Conv1DFli (None, 103, 512)     307712      HypernymEmbedding[0][0]
__________________________________________________________________________________________________
HypernymBigramsConv (Conv1DFlip (None, 103, 512)     614912      HypernymEmbedding[0][0]
__________________________________________________________________________________________________
HypernymTrigramsConv (Conv1DFli (None, 103, 512)     922112      HypernymEmbedding[0][0]
__________________________________________________________________________________________________
HyponymConcat (Concatenate)     (None, 10, 1024)     0           HyponymUnigramsConv[0][0]
                                                                 HyponymBigramsConv[0][0]
__________________________________________________________________________________________________
HyponymMaskCalculator (MaskCalc (None, 10, 1024)     1           HyponymInput[0][0]
__________________________________________________________________________________________________
HypernymConcat (Concatenate)    (None, 103, 1536)    0           HypernymUnigramsConv[0][0]
                                                                 HypernymBigramsConv[0][0]
                                                                 HypernymTrigramsConv[0][0]
__________________________________________________________________________________________________
HypernymMaskCalculator (MaskCal (None, 103, 1536)    1           HypernymInput[0][0]
__________________________________________________________________________________________________
HyponymMaskMultiplicator (Multi (None, 10, 1024)     0           HyponymConcat[0][0]
                                                                 HyponymMaskCalculator[0][0]
__________________________________________________________________________________________________
HypernymMaskMultiplicator (Mult (None, 103, 1536)    0           HypernymConcat[0][0]
                                                                 HypernymMaskCalculator[0][0]
__________________________________________________________________________________________________
HyponymMasking (Masking)        (None, 10, 1024)     0           HyponymMaskMultiplicator[0][0]
__________________________________________________________________________________________________
HypernymMasking (Masking)       (None, 103, 1536)    0           HypernymMaskMultiplicator[0][0]
__________________________________________________________________________________________________
HyponymAvePooling (GlobalAverag (None, 1024)         0           HyponymMasking[0][0]
__________________________________________________________________________________________________
HypernymAvePooling (GlobalAvera (None, 1536)         0           HypernymMasking[0][0]
__________________________________________________________________________________________________
ConcatAll (Concatenate)         (None, 2560)         0           HyponymAvePooling[0][0]
                                                                 HypernymAvePooling[0][0]
__________________________________________________________________________________________________
HiddenLayer1 (DenseFlipout)     (None, 2048)         10487808    ConcatAll[0][0]
__________________________________________________________________________________________________
OutputLayer (DenseFlipout)      (None, 1)            4097        HiddenLayer1[0][0]
==================================================================================================
Total params: 52,677,467
Trainable params: 13,259,265
Non-trainable params: 39,418,202
__________________________________________________________________________________________________

2020-02-17 23:43:34.673149: I tensorflow/stream_executor/platform/default/dso_loader.cc:44] Successfully opened dynamic library cublas64_10.dll
…
